autoencoder_edge_detector.pth (torch, 783054 bytes, 15 tensors)

encoder.0.weight f4 [16, 1, 3, 3]
000000 b3 90 d4 3d a9 02 78 be 59 52 2a 3e c5 52 48 bd
       0.10379162 -0.24219765 0.16632976 -0.04890706
000010 10 3b 71 3d 72 98 4a 3e 77 4d 94 3e da 74 40 3c
       0.058894217 0.19784716 0.2896535 0.01174661
000020 eb be a7 3e 85 9b 42 be fd 5d 38 3e 79 06 23 be
       0.32762846 -0.19004638 0.18004604 -0.15920438
000030 ef 89 a2 be 6c 8c 2b bd f7 53 26 3e 1d 87 de bd
       -0.3174586 -0.041881964 0.16242968 -0.108656146
000040 cf 74 37 3e c0 8b 99 3e ae ea 2e 3e f6 25 93 3e
       0.17915653 0.29989433 0.1708171 0.287399
000050 61 1a 58 be fa 91 8c 3e 0a 9b 51 be ee 5d a1 3e
       -0.21103813 0.2745512 -0.20469299 0.31516975
000060 2e 45 f6 bd a5 88 4c be 18 c6 90 bc 92 4e 97 be
       -0.12024914 -0.19974001 -0.017672583 -0.29552132
000070 9e 65 86 be f2 d9 7e 3e 0c 11 a2 be 22 11 9b be
       -0.26249403 0.24887827 -0.3165363 -0.3028651
000080 d5 90 8f 3e f8 c6 0f 3e ac e2 ec bd 60 26 80 be
       0.28040186 0.14040744 -0.11566672 -0.25029278
000090 d0 48 9d bc de b3 4b be 66 b2 36 3e fc 7c 82 bd
       -0.019199759 -0.19892833 0.17841491 -0.06371495
0000a0 8d 2d a2 3e bb 1a a2 be 80 53 24 bd 4e a4 42 be
       0.31675377 -0.3166102 -0.040118694 -0.1900799
0000b0 3e bc 1e be ff 19 3b 3d 6f 15 4b 3e d3 88 8e be
       -0.15501496 0.04567909 0.19832395 -0.27838764
0000c0 95 74 81 3e 7b b5 b2 be 7c 30 5c 3e 4d 73 5f be
       0.25284258 -0.34904084 0.2150287 -0.21821328
0000d0 8d 09 7c 3e ab 70 8a 3e 5f d9 5b be 41 ff c4 3d
       0.24613018 0.27039084 -0.21469639 0.09618998
0000e0 dc 33 14 3e e5 5f 92 be 47 44 d9 3a c7 e4 f1 bd
       0.14472908 -0.28588787 0.0016576134 -0.11811214
0000f0 c9 d1 33 3e f1 17 3f 3e f1 d3 69 3d c8 ba 31 3d
       0.17560495 0.18661477 0.05708689 0.04339102
000100 7c 73 a3 be 90 8c 08 3e c6 1c 40 be 16 8a 25 be
       -0.31924045 0.1333487 -0.18760976 -0.16165957
000110 ac 3a 83 be d0 4b ea bd 26 13 4c be d3 2e 2c be
       -0.256307 -0.11440241 -0.1992918 -0.16814737
000120 b7 0e 82 bd 9a 44 6d bd 0d 86 b9 be 3e 1c 61 3c
       -0.06350463 -0.05792675 -0.36235085 0.013739644
000130 18 59 8e 3d 03 6a 17 be 72 0e b7 be 06 66 9b be
       0.06950587 -0.14786534 -0.35753208 -0.30351275
000140 e0 5a 48 ba 15 65 06 be 51 45 04 3d 54 bd 87 bd
       -0.0007642936 -0.13124497 0.032292668 -0.06627908
000150 cd 04 71 be 99 b0 ad 3c 97 38 a7 be 21 7a 51 bd
       -0.23536988 0.021202372 -0.32660362 -0.05114186
000160 ad 39 7b be dc 3f bb bd f8 26 97 be 40 10 bf be
       -0.2453372 -0.091430396 -0.29521918 -0.37317085
000170 7f c2 c1 bd 1f 9a 26 bd 61 f5 ca be f0 ca 1c be
       -0.09460925 -0.040674325 -0.39640334 -0.1531179
000180 dd 1f 81 3d fa 8d bd be d1 2b b7 be 69 a4 b0 bd
       0.063049056 -0.37022382 -0.35775617 -0.08625109
000190 64 5c 7e be 6a b5 99 be e1 39 83 be 83 9d ab bc
       -0.24839932 -0.3002122 -0.25630096 -0.02094913
0001a0 f6 26 1c 3d 40 90 6b 3e d1 66 60 bd 6d c3 b9 be
       0.038123094 0.23004246 -0.054785553 -0.3628191
0001b0 b7 52 cb bc 6d 62 8e 3e 9a 15 62 be 9e 9e 9c 3e
       -0.024819715 0.27809468 -0.22078553 0.30589765
0001c0 8a 6e 62 3d 00 46 f2 3d 9d 7d 6b be 81 69 87 be
       0.0552812 0.11829758 -0.22997136 -0.2644768
0001d0 56 ba f8 bd 3f d6 a7 bd 26 78 09 be 5d cc 80 3e
       -0.12144916 -0.08195161 -0.13424739 0.25155917
0001e0 33 12 87 3e 9a b8 0d 3e 76 38 2e 3e db 43 37 bd
       0.26381072 0.13839951 0.17013726 -0.044742446
0001f0 2a 2f 21 3d 75 f8 76 be 79 d8 99 3e c7 b7 84 3e
       0.03935162 -0.24118216 0.30047968 0.2592146
000200 56 59 58 be a3 c3 1b be eb 5f 0f 3e 6b 49 27 be
       -0.21127829 -0.15211348 0.14001434 -0.163366
000210 b2 4c 87 3d 04 1c f4 3d 33 4a 36 3d 3b 3f 8a be
       0.06606425 0.11919406 0.044504356 -0.27001366
000220 e6 43 32 be 71 fb 9a 3e 00 d4 a9 be 90 c7 e9 3c
       -0.17408714 0.3026996 -0.33169556 0.028537542
000230 de 1b 4b be 9c 83 e8 bd fe e3 92 be fe fc 43 3e
       -0.19834849 -0.113532275 -0.2868957 0.19139478

encoder.0.bias f4 [16]
000000 90 f6 4d be d2 cd 21 bb ae 59 9a be 68 a4 5e be
       -0.20113587 -0.002468933 -0.30146545 -0.21742404
000010 a4 52 9c bd 6e f1 94 be aa 66 94 3e 57 46 aa be
       -0.0763295 -0.29090446 0.28984576 -0.3325679
000020 f2 ae 99 3e 93 00 e3 3d c3 1e 17 3e dd 48 98 3e
       0.30016285 0.11084094 0.14757828 0.2974309
000030 c6 a5 9d 3e b9 7c 05 3e cc f2 10 3c c0 b7 a8 be
       0.30790538 0.13035859 0.00884695 -0.3295269

encoder.2.weight f4 [32, 16, 3, 3]
000000 41 3c 28 3b 26 61 90 3d ec 28 20 3d 3d 2f 93 bc
       0.002567068 0.070497796 0.039101526 -0.01796686
000010 45 9a 93 3d 0d 2c 87 bd 55 c2 6c 3d 92 6c 29 bd
       0.07207159 -0.06600199 0.057802517 -0.041363306
000020 92 72 d1 bc 9f 15 81 be 3d e4 fc bd c5 ac 62 be
       -0.025567327 -0.25211808 -0.123482205 -0.22136219
000030 3c 2a 5a be 45 d3 68 be 7d d6 e4 bd ec 26 38 be
       -0.21305174 -0.22736843 -0.11173723 -0.17983598
000040 da 83 f4 bd 15 b4 7d be 24 b8 43 be c7 91 5f be
       -0.11939211 -0.24775727 -0.19113213 -0.21832953
000050 04 95 39 be b4 18 3d be 21 5f 2c be 7c 49 76 be
       -0.18123251 -0.18466455 -0.16833164 -0.2405147
000060 3c 5f bd bd f6 0d 70 be 53 6e 43 be 58 40 0a bd
       -0.0924668 -0.23442826 -0.19085054 -0.03375277
000070 5e cf 91 bd 5c 78 98 bd 60 0a 8e bc 34 f9 8b bd
       -0.0711963 -0.07444832 -0.017338932 -0.06834641
000080 1e db 00 bd 70 9d 9e bc f0 da b1 3c fa c7 10 3d
       -0.031458966 -0.019362181 0.021710843 0.035346963
000090 87 31 a6 3d 2e 59 6f bd cc 29 87 bc d0 09 25 3d
       0.08114915 -0.058434658 -0.016499422 0.04029256
0000a0 32 02 2f 3d 00 d7 12 bc 0a cd 7a 3d d0 af 1b bd
       0.042726703 -0.008962393 0.061230697 -0.038009465
0000b0 c0 ed f3 ba 74 f2 3a 3c 76 ee 34 bb 6c 9f 8e 3c
       -0.0018610284 0.011410344 -0.0027607954 0.017410003
0000c0 c3 46 3b bd 8f c8 66 3c d7 d2 94 3d 34 68 89 bb
       -0.04572178 0.014085903 0.07266777 -0.00419333
0000d0 82 aa b0 3d 99 c6 38 bd 6a 35 87 bd 2c cc cb 3c
       0.08626272 -0.045111272 -0.06601985 0.02487763
0000e0 02 c8 90 3d f0 58 27 bc 91 57 98 3d 4d 07 00 bd
       0.070693985 -0.010214075 0.07438577 -0.031256963
0000f0 08 d6 2a 3d 89 8e b3 bc 48 6d b7 3c 98 e2 14 bd
       0.041708022 -0.021918552 0.022390977 -0.03634891
000100 26 18 f9 bc b8 27 5b bd 80 a2 c7 3b e6 f7 43 bd
       -0.030407023 -0.053504676 0.0060923696 -0.047843836
000110 f0 ea b4 3b 7b 94 16 bd c0 24 a5 bc 31 68 9a 3d
       0.005521171 -0.036762696 -0.020159125 0.07539404
000120 01 13 d9 bc 32 cb c1 3c 8b 23 fe bb c5 e8 a2 3d
       -0.02649832 0.023656461 -0.007755702 0.079545535
000130 8b aa 33 3d 8b a3 21 bd af 6b 7a bc 2a 0e 8d 3d
       0.043863814 -0.039462607 -0.015284463 0.06887467
000140 42 db 99 bc d3 de 3a 3c cb 23 1f 3d 2f 9c b1 3d
       -0.018781308 0.0114056645 0.038852494 0.08672368
000150 ac af 32 bd 1e d3 24 bd f0 4c d7 3b b6 0d 29 3b
       -0.043624565 -0.0402404 0.006570451 0.0025795526
000160 51 53 25 bd b4 e1 71 3c c3 03 cd 3d 46 4d 2d 3b
       -0.04036266 0.0147632845 0.10010483 0.0026443764
000170 09 25 7c 3c ee 1a 4f 3d 1a 43 a3 3d 1a 0e f4 3d
       0.015389689 0.05056279 0.07971783 0.11916752
000180 bf 47 54 3d 30 0b da 3d 01 07 ed bb c5 f5 87 3d
       0.051826235 0.10646665 -0.007233501 0.06638674
000190 b5 1e 7c bb 03 ef 79 bd 34 78 2d 3c 79 ce 6d 3d
       -0.0038470451 -0.061018955 0.010587741 0.058058236
0001a0 f0 57 c7 39 0f c1 27 3d e6 7f b0 3c 63 83 ab 3d
       0.00038021756 0.0409556 0.021545362 0.083746694
0001b0 f5 24 48 bd 29 26 5c 3d e9 21 f2 ba ea dc 5c bd
       -0.04886337 0.05374733 -0.0018473241 -0.053921618
0001c0 47 6a 31 3d 6b 85 0d 3d 5e 0c 74 3b 2d 96 56 bd
       0.043314245 0.034551065 0.0037238817 -0.052389313
0001d0 41 6f 45 bd b3 8f 1c bd ca eb 98 3d 98 4e cb bc
       -0.048201803 -0.03822298 0.07466848 -0.02481775
0001e0 f6 68 e1 3c ba e9 9b 3d 6f 9f 2e bd e9 59 21 3d
       0.02751587 0.07612939 -0.042632516 0.039392386
0001f0 6f 24 03 3c 29 3a 38 3d 3f 3f 85 bd 61 b7 00 bd
       0.008004292 0.04497734 -0.06506204 -0.031424884
000200 78 30 a5 3d 5c 4d 51 3d 2a c7 8a 3c 1c 06 51 3d
       0.08065885 0.051099166 0.016940672 0.051031217
000210 31 17 41 3d bb 8e a7 3c a1 72 18 3d 10 7c 08 bd
       0.047141258 0.020453801 0.037218694 -0.03332144
000220 b2 80 66 3d 5e dc 3a bd 05 13 a2 3d 6c c7 e9 bc
       0.056275077 -0.045620315 0.07913784 -0.028537475
000230 f4 4f fa 3c 54 b5 e2 3c 40 52 27 3c 4c 1b bd 3c
       0.030555703 0.027674355 0.010212481 0.023084305
000240 22 10 4f 3d 9e db f5 bc 79 5e d8 3c 59 69 38 3d
       0.050552495 -0.030011948 0.026412236 0.045022342
000250 58 4c 1d 3c fa 51 98 bc d5 b2 2b ba 10 10 cc 3c
       0.009600721 -0.018593777 -0.00065497804 0.024910003
000260 81 5a 19 3d 3a 4a 2c be c4 cd 86 be 8b 2b 68 be
       0.037439827 -0.1682519 -0.26328862 -0.2267286
000270 eb cc f4 bd 5e b8 45 be cd 16 56 be 3e 45 23 be
       -0.119531475 -0.19308612 -0.20907135 -0.15944383
000280 4e 76 7e be 95 08 18 be 86 6c 00 be ea 60 3d be
       -0.24849817 -0.14847024 -0.12541398 -0.18494001
000290 15 71 f0 bd aa de 34 be d8 18 ee bd ff 1c 22 be
       -0.11740319 -0.17663065 -0.11625832 -0.15831374
0002a0 3a 31 49 be c8 08 e6 bd 43 cf 35 be ac fd e3 bc
       -0.19647685 -0.11232144 -0.17754845 -0.027830921
0002b0 06 09 01 3d 0c fc 9a bd 50 b1 e0 3c 53 1a 8b 3d
       0.031502746 -0.075676054 0.0274283 0.0679213
0002c0 90 e0 fc 3c e0 5c 9b bd 23 a6 72 bd e8 f1 1e bd
       0.030868798 -0.07586074 -0.05924047 -0.03880492
0002d0 75 17 94 3d 0b 35 34 bd 5d dd a6 3d c1 b7 85 3d
       0.072310366 -0.0439959 0.081476904 0.06529189
0002e0 67 e3 87 bd 3c 2e a9 bd 98 d1 70 3c 31 68 a1 3d
       -0.066351704 -0.08260772 0.014698409 0.07881201
0002f0 16 fe 5d 3d 1d a1 b8 3d 57 05 01 3d 50 a9 0c bd
       0.054197393 0.09015105 0.031499233 -0.034341156
000300 22 5a 29 3d 60 79 2a 3d fa 4e 62 bd 01 1f ed 3c
       0.041345723 0.04161966 -0.0552511 0.028945448
000310 20 b4 42 3c 9f b0 77 bc 68 66 1e bd 54 94 7d 3d
       0.011883765 -0.015117793 -0.03867188 0.061909035
000320 c6 0c 22 bb d8 80 77 bc b3 af 96 3d b5 0b 09 bb
       -0.0024726852 -0.015106402 0.07357731 -0.002091152
000330 0b 36 cc 3c 68 e5 8a 3d c6 45 92 3d 66 45 36 bd
       0.024928113 0.06782037 0.071422145 -0.044499777
000340 88 1e 65 3c 83 fd 7c bd d9 6f 87 3d 67 a5 94 3d
       0.01398433 -0.061765205 0.0661313 0.072581105
000350 01 cd 8a 3d 80 64 8d bb a4 1a cf 3c d2 be 17 3d
       0.06777383 -0.004314959 0.025281258 0.037047215
000360 e5 b9 e0 bc 58 ac 64 bc b1 0f cf 3c 3e e8 81 3d
       -0.027432391 -0.013957106 0.025276037 0.06343125
000370 b7 50 9e 3c a3 92 4e bd d7 1a 98 3d 64 f5 02 3c
       0.019325597 -0.050432812 0.07426994 0.007993076
000380 aa c0 65 bd b8 65 9a 3d 79 69 0b bd c8 6c d8 3d
       -0.056091942 0.075389326 -0.034036133 0.105676234
000390 5a e2 a0 3d 29 9a 92 3d fa 5f 29 3d 9c 3d e8 bc
       0.07855673 0.0715831 0.041351296 -0.02834969
0003a0 0b b4 20 3d f8 8d c1 3d 53 92 b5 3d 4e f0 f3 3d
       0.039234202 0.094509065 0.088658 0.11911069
0003b0 0e 03 f8 3d 67 17 8f 3d 39 94 22 3d 40 c4 89 3d
       0.12109958 0.069868855 0.039692137 0.06726885
0003c0 76 84 be 3d cb aa f3 3d 6b 80 70 3b 7e 6b 80 bc
       0.09302609 0.118978105 0.0036697637 -0.015676256
0003d0 de 92 1c 3d 87 d8 b5 3d 54 f8 44 bc 6a 75 84 3b
       0.038226 0.0887919 -0.012022097 0.004042317
0003e0 d4 9d f6 bc 7e 03 5e 3c c3 77 7a 3d d7 7c b9 3c
       -0.030104555 0.013550637 0.06114937 0.022642536
0003f0 b2 28 8c bd af 0f 78 bd 37 52 ab 3d 85 d9 90 3d
       -0.068436995 -0.060561832 0.083652906 0.070727386

encoder.2.bias f4 [32]
000000 c6 bc 63 bc 3e 41 01 3d 80 50 83 3d 31 a3 9b bc
       -0.013899988 0.03155636 0.064118385 -0.018998714
000010 d1 a9 cc bc 02 4e 3e 3d f7 02 97 bd 88 49 f7 bb
       -0.024983319 0.046461113 -0.073736124 -0.0075466074
000020 6c 80 b7 bd 52 19 8c 3d f9 7c a6 bb 30 3c 95 3d
       -0.089600414 0.06840767 -0.005080816 0.072868705
000030 6f 77 ee bc 22 12 df 3b dd 82 58 bd 95 54 9a bd
       -0.029109685 0.0068075815 -0.052859176 -0.07535664
000040 85 56 9f 3d 81 20 94 3c 94 40 07 3d cf a5 ae bd
       0.07780174 0.018081905 0.03302057 -0.08527719
000050 c8 a0 6f bd 3a cf 04 3d bd 63 7d 3d a3 b9 2c bd
       -0.058502942 0.03242419 0.061862696 -0.042169224
000060 a8 e3 6b 3d 89 96 9f bd 9a 41 a1 3d 6c d2 90 3d
       0.057590157 -0.07792384 0.07873841 0.07071385
000070 c6 da b7 3c 64 cc 61 3d 62 cb f1 3b 8a 93 3c bd
       0.022443186 0.055126563 0.0073789814 -0.04603914

encoder.4.weight f4 [64, 32, 3, 3]
000000 c3 48 bf 3c df ff 46 3d a2 77 f7 bc 56 59 2d bd
       0.023350125 0.04858386 -0.030208413 -0.042321526
000010 30 af 4e bc 65 81 06 bc e4 03 f7 bc de 20 01 3a
       -0.01261501 -0.008209561 -0.030153222 0.0004925857
000020 cf 7d 83 bb d1 71 d5 3c 11 f1 10 bd 88 83 58 bd
       -0.0040128003 0.026055248 -0.03538615 -0.052859813
000030 62 59 fa 3b 3a be 47 3d a3 4b e8 bc 4d 53 1f 3d
       0.00764005 0.0487654 -0.028356379 0.0388978
000040 f0 42 19 bc 22 c0 19 3d 9a 1b fd bb b1 2d 7c bc
       -0.009354338 0.037536748 -0.0077242376 -0.015391753
000050 70 38 81 3d ab 20 1f bd a9 b7 c4 3c 8a 8a c7 3c
       0.06309593 -0.038849514 0.024013357 0.024358053
000060 92 32 aa 3a 64 96 3a 3d 77 5b 7c 3d b1 40 e7 3c
       0.0012985042 0.04555358 0.061610665 0.02822909
000070 4b ef 42 3d 9a c7 cc 3c b3 0f 81 3e e6 dd 67 3e
       0.04759149 0.024997521 0.2520729 0.22643241
000080 4b 9d 49 3e fd f0 c8 3c 8f c1 c8 3d 92 be 49 3d
       0.19688909 0.024528975 0.09802543 0.049254008
000090 32 27 8d bc 6c f2 2c bc 44 e6 4a bc c2 b9 3d 3d
       -0.017230604 -0.010555845 -0.012384001 0.04631973
0000a0 df a6 85 3d 5f d5 2b bd 60 0f 25 bd e8 21 73 3d
       0.06525969 -0.041951533 -0.040297866 0.059358507
0000b0 98 61 42 3d c8 63 2d 3c 68 d6 78 bc aa 62 33 bd
       0.047456354 0.010582872 -0.015187837 -0.043795265
0000c0 f0 5a 24 3d 91 17 25 3d 7d 81 e0 bb 2a f0 34 3a
       0.040125787 0.040305678 -0.0068513737 0.00069022423
0000d0 12 0d 83 bc 06 ab 87 bc 6a 80 57 ba e3 88 6c 3d
       -0.015997443 -0.016561043 -0.00082207343 0.057747733
0000e0 e4 9a 63 3c 64 9d 27 bc de 63 0e 3d c0 53 c8 bc
       0.013891909 -0.010230396 0.03476321 -0.024453998
0000f0 2f a9 13 3d 37 72 50 3d 9e 0b de bb e2 b3 0e bd
       0.036050018 0.050890174 -0.006776287 -0.03483952
000100 b8 2f 02 bd b4 9f 40 bd 1e 77 f0 bc 60 09 0c bd
       -0.03178379 -0.047027305 -0.029353675 -0.03418863
000110 1f 7d ee 3c f5 7f 5a bc 53 2a 78 3c 44 66 11 bd
       0.029112397 -0.013336171 0.01514681 -0.03549792
000120 c9 e2 10 3d e3 86 8f 39 c0 61 55 bd e0 47 1b bd
       0.03537253 0.00027375584 -0.052095175 -0.037910342
000130 bf 74 46 bd 16 71 c0 bb e3 a7 92 bc 87 da 05 bd
       -0.04845118 -0.005872856 -0.01790232 -0.032679107
000140 ec b5 33 3c 08 dc 05 3d fa 05 7b bd 7e 29 ff 3c
       0.0109686665 0.03268054 -0.061284997 0.031147715
000150 78 83 55 3d 4d 20 9b 3b d4 66 9b 3c 58 4a 40 3d
       0.05212733 0.004734075 0.01896993 0.0469459
000160 c1 60 be bc 53 86 2b bd 05 09 ca bc 48 75 b9 bc
       -0.023239495 -0.04187615 -0.024662504 -0.022638932
000170 06 2a 86 bc 88 57 4b bd 05 77 3b bd 54 29 cd 3c
       -0.01637746 -0.049644023 -0.045767803 0.02504412
000180 59 64 20 bd b8 2d 1c 3d 8d 5a e0 3c ce 83 79 bc
       -0.0391582 0.03812954 0.027386928 -0.015229179
000190 4f 86 d6 3c c0 f7 b8 bc bc 85 5f bc ef 15 2e bd
       0.02618709 -0.022579074 -0.013642725 -0.042501386
0001a0 a7 a6 9f bc 15 3d 67 3d 6a 64 57 bd 10 2d 58 bd
       -0.019488646 0.056454737 -0.052585997 -0.05277735
0001b0 9e 99 c6 ba 93 fa 22 3d 5c 15 ab bc 68 c5 5f 3d
       -0.0015151983 0.039789747 -0.020884208 0.05463162
0001c0 48 ee e8 bc ee f2 4b 3d 42 5c 56 bd 8e c9 35 bd
       -0.028433934 0.049792223 -0.052334078 -0.04438167
0001d0 14 58 a0 bc 63 bf 0a 3d 93 53 8d 3e 1b ee 29 3e
       -0.019573249 0.033873927 0.27602825 0.16594736
0001e0 dc 4c 64 3e f0 e1 4a 3e 13 50 74 3e ea 74 55 3e
       0.22294945 0.19812751 0.23858671 0.2084538
0001f0 13 2b 96 3e 2f f7 4a 3e 5b 4c 5b bd 70 ee cb 3c
       0.29329738 0.19820856 -0.053539615 0.02489397
000200 05 4a 23 bd 5f d9 55 bc cb 0a 1f bb 6c 19 54 3d
       -0.039865512 -0.013052314 -0.0024267908 0.051782057
000210 91 68 1f bd fb 76 0c bd 5e 2e 95 3c 14 1a 9c bc
       -0.03891808 -0.034293156 0.018210586 -0.019055404
000220 11 e8 b5 bc 89 a4 51 bd ea 88 48 bd ad 4f b4 3c
       -0.022205384 -0.051182304 -0.048958696 0.022010649
000230 f8 e2 52 bd d8 82 3d 3d b0 4c 6a 3d 3e 56 11 bc
       -0.051485986 0.04626736 0.05720204 -0.008870659
000240 d6 a9 4b 3d 35 f6 19 3d c1 a7 7c bc 88 1c 41 bc
       0.049722515 0.037588317 -0.015420855 -0.011786588
000250 da 70 48 ba f2 66 31 bd 7c 50 2b 3c 43 81 51 bc
       -0.0007646211 -0.043311067 0.010456201 -0.012787166
000260 ab 55 5e bd 54 62 f3 3c 95 ed 47 bd 98 f5 58 3d
       -0.054280918 0.029709972 -0.04881056 0.05296859
000270 71 af 28 3d cd 8f f8 bc 5a d7 91 3c da 53 bc bc
       0.04118294 -0.030342007 0.017802883 -0.022989202
000280 a6 38 ac 3a df 61 ae 3c 4f f4 25 3d ea e7 1c 3d
       0.0013139441 0.021286903 0.040516194 0.038307108
000290 e5 c9 2b bd 6b 86 85 bc 03 aa dd 3c 11 6b 31 bd
       -0.04194059 -0.016299447 0.027058607 -0.043314997
0002a0 65 e9 2f bc 34 44 46 3d 90 c5 f3 3c 90 8b c3 bb
       -0.010736798 0.048404887 0.029757291 -0.005967565
0002b0 83 e2 db 3c 2f cf 48 3d 58 fe c0 3b 53 89 79 3c
       0.026841408 0.04902571 0.005889695 0.015230495
0002c0 43 eb 1a 3d a0 6d f0 ba 8d 92 e2 bb ca 28 91 3c
       0.03782202 -0.0018343218 -0.006914443 0.017719645
0002d0 77 0d 80 bb 8c 93 03 3c 00 37 fc 3c 74 8d 4f 3c
       -0.003907855 0.008030783 0.030787945 0.012668002
0002e0 2f 3b 79 3a 09 91 86 3c a0 10 2d bd a6 b6 56 bd
       0.0009507415 0.01642658 -0.042252183 -0.05242028
0002f0 bb 4d 66 bd ef 01 1f 3d 80 48 9b 3c a8 0a 63 3d
       -0.056226473 0.038820203 0.01895547 0.055430084
000300 bc 54 b0 bc 26 1a 7d 3c 87 ca 62 bd 10 77 70 3d
       -0.02152478 0.015448129 -0.055368926 0.058707297
000310 7b fc 8f 3b d3 3b 97 3c 3a 28 0b bc 34 2e cf 3c
       0.0043941117 0.018461144 -0.0084934775 0.025290586
000320 df 83 d1 3c 7f 49 64 3d 79 07 05 3d 0b eb d6 bc
       0.025575576 0.055734154 0.03247783 -0.026235124
000330 96 59 a3 bc ed 1b 97 bc 3f 07 a6 3b 45 be 6c bd
       -0.019940179 -0.018445933 0.005066782 -0.057798643
000340 d0 a8 03 bd 78 93 1d bd 7e d1 af 3c 27 0b 41 3d
       -0.032143414 -0.038470715 0.021462198 0.047129776
000350 de 4a ce 3c 05 ee 22 bd 30 47 e4 bb 93 c8 46 3d
       0.025182184 -0.039777774 -0.006966494 0.048531126
000360 da d6 2b 3d 51 31 04 3d 2d 04 46 bd 4f a5 1c 3d
       0.041952945 0.032273594 -0.048343826 0.038243588
000370 fc 46 f8 3c 4f 96 b6 3c 67 28 1f bd 5d cf 3a bd
       0.030307285 0.02228847 -0.03885689 -0.045607913
000380 76 81 ac bc 7c 90 99 3c f8 21 a0 3a 96 d9 00 3c
       -0.021057826 0.018745653 0.0012217155 0.0078643765
000390 73 20 df 3a fa d4 ed bc f6 b2 43 3d d6 7d 08 bc
       0.001702322 -0.02903222 0.047778092 -0.008330783
0003a0 24 89 99 3c 1c 37 64 3d 97 62 fc bc 7d 07 5a 3c
       0.018742152 0.05571662 -0.03080873 0.013307449
0003b0 93 a6 63 bd 37 8b 52 bb cc 51 89 bb 3c ad c1 bb
       -0.05557878 -0.0032126436 -0.004190659 -0.0059105437
0003c0 b5 30 78 3d 07 5d 8c bc 8e 66 32 bd e6 52 45 bb
       0.060593326 -0.017134203 -0.043554835 -0.0030109226
0003d0 21 f0 72 3d c5 fb 3d bc 92 90 d0 bc af 80 39 3d
       0.059311036 -0.011595671 -0.025459561 0.045288738
0003e0 d2 69 82 3d 22 29 3f 3d 63 ad 32 bd c4 db 3e 3d
       0.0636784 0.046670087 -0.043622386 0.046596304
0003f0 5d a0 44 bd f6 f3 01 3d 17 be 53 3d fc b5 2e 3d
       -0.048004497 0.0317268 0.051694956 0.042654023

encoder.4.bias f4 [64]
000000 84 4d 44 3d b6 f3 1f 3c 3b ce 87 3c c2 d0 44 3d
       0.047925487 0.009762695 0.01657783 0.04805065
000010 88 f2 11 bc 10 9a 27 bc c6 db 74 bc 14 3c 58 bc
       -0.008907922 -0.010229602 -0.014944976 -0.0131979175
000020 b7 07 9d 3c b3 52 6b 3d f0 e1 22 bd 56 8a a8 bb
       0.019168718 0.057451915 -0.039766252 -0.005143444
000030 92 dc bb bb 0e 48 62 3c 4b 66 88 3d 3e 5d 1a 3d
       -0.005733081 0.0138111245 0.06660136 0.03768658
000040 eb de 33 bd 02 01 62 bd 77 ae 9e 3c d1 65 bd 39
       -0.043913763 -0.055176742 0.0193703 0.00036124748
000050 3d e8 14 bd 18 f7 68 3d 24 a4 ed 3c f8 45 c0 bc
       -0.036354292 0.056876272 0.029008932 -0.023470864
000060 2d 52 5d bd b5 b5 80 bc d6 7f 81 3c 37 21 78 bd
       -0.054033447 -0.015711645 0.015808027 -0.06057855
000070 17 a5 9f 3c 4d bb 01 3d d0 7f 03 3d bf e5 c8 3c
       0.0194879 0.031672765 0.032104313 0.024523614
000080 10 c9 f0 3c 5c 71 8e 3d 1b 16 7e 3d de a6 3a 3c
       0.02939275 0.06955215 0.0620328 0.011392323
000090 68 59 f0 3c 4a ae 5f 3c 4b 84 b4 bc e7 17 48 bd
       0.029339507 0.013652394 -0.022035738 -0.04885092
0000a0 dd 41 56 3d 9f 59 78 bd d1 ce 3c 3d ae 4c 9e bb
       0.052308906 -0.060632344 0.046095673 -0.0048309183
0000b0 10 a0 13 3d ec 21 39 bc ac af e4 bc 7d c2 2d 3d
       0.03604132 -0.0112995915 -0.027915798 0.042421807
0000c0 96 9f fd 3c 1d ab 0a 3d 02 09 70 3b 41 a6 49 3d
       0.030959886 0.033854593 0.0036626463 0.049230818
0000d0 0c ac 19 bd ee 92 2e bc 71 2c 8d 3d 00 f9 28 bd
       -0.037517592 -0.010655148 0.06893242 -0.04125309
0000e0 74 9b 5f 3c 25 be 7e 3c 4e 28 56 3b 00 39 c3 bc
       0.013647903 0.015548264 0.0032677832 -0.02383089
0000f0 32 cf 69 bd 3b 0b 19 bd 71 1e bd 3b 26 94 b7 bc
       -0.057082362 -0.037364226 0.005771451 -0.02240951

encoder.6.weight f4 [128, 64, 3, 3]
000000 f0 b9 76 3d 64 ee 71 3d 44 30 e0 3d 43 8d db 3d
       0.060235918 0.059065238 0.10946706 0.10720303
000010 a0 c3 94 3d 4b e2 9b 3d 17 6b f7 3d ed f8 db 3d
       0.07263875 0.07611521 0.12080973 0.10740838
000020 da 63 9f 3d 37 2a 70 3d 1c 53 10 3a 47 e8 cd 3c
       0.07782717 0.05863401 0.00055055483 0.025135173
000030 11 8c 95 3c 68 02 f6 bb 1a 31 63 bd 08 4f e2 bb
       0.018255265 -0.007507611 -0.05546675 -0.006906394
000040 8f 8d 5b bc aa 0d 89 bc e2 5d 4c 3d a9 fa 93 3d
       -0.013400449 -0.016730148 0.04989422 0.07225544
000050 61 58 7b 3d 5e aa b7 3d a5 ce 76 3d d4 3a 97 3d
       0.06136358 0.08968042 0.060255665 0.073842674
000060 4c 7c cb 3d 6e 4f 75 3d 03 dc e7 3d 4d f6 13 3d
       0.09935817 0.059890203 0.11321261 0.036123563
000070 94 a2 2e 3d 79 ac 99 3c e6 06 ad 3c 80 f1 e6 bc
       0.042635515 0.018759 0.021121453 -0.028191328
000080 79 d4 ff 3a fa ce 11 b9 a3 12 1e 3b 45 b9 a9 bb
       0.0019518278 -0.00013905382 0.0024119995 -0.0051795566
000090 eb 57 a6 3b e6 e8 01 3d 3e 7d 12 3d bd 17 26 3d
       0.0050763986 0.03171625 0.03576397 0.040549982
0000a0 fc 1a 34 3c 00 d5 7a bd 6d 2f 0b 3a b2 6e 76 bc
       0.010992762 -0.06123829 0.0005309496 -0.01504104
0000b0 d9 2d 1c bd 60 e1 16 3c 6c 41 6c 3c 50 3b 9e bc
       -0.03812966 0.009209007 0.014419895 -0.019315392
0000c0 f2 c9 dd 3c 48 48 e3 3b f6 48 ae 3c 20 d7 24 bc
       0.027073834 0.006936107 0.021275025 -0.010061055
0000d0 2a 19 e0 3c 6f 31 12 3d 48 14 75 3d 58 e4 0c ba
       0.02735575 0.035691675 0.059833795 -0.0005374602
0000e0 e1 cf ba 3c 91 69 64 3d 5d 57 1a bd db d3 73 3c
       0.022804203 0.05576474 -0.037680972 0.014882053
0000f0 60 03 6b bb 1b e7 bd 3c 9e c2 69 3b 47 72 0d bd
       -0.0035860166 0.023181489 0.003566898 -0.03453281
000100 2b 75 db bc 64 7b b0 bc 9a 0a 20 3d e0 40 d5 3c
       -0.026789268 -0.021543212 0.03907261 0.026031911
000110 af 7c 01 3d 31 99 80 bb 36 91 e0 bc e7 4a f7 3c
       0.03161305 -0.003924512 -0.027412992 0.030187083
000120 bc 02 1f 3d 79 2c af 3d 51 bb 99 3d 8d 98 60 3d
       0.038820967 0.08553404 0.07506431 0.054832984
000130 f8 1a fa 3d e4 9c d5 3d 00 97 a1 3d d0 55 db 3d
       0.12212175 0.10430315 0.07890129 0.10709727
000140 29 af 1f 3d 17 06 1c 3d e1 c6 4f 3d 55 22 9e bc
       0.038985405 0.038091745 0.050726775 -0.01930348
000150 3e b3 f8 3b 71 37 2f 3c 45 ed 83 3c df 48 7f 3c
       0.0075897267 0.010694371 0.01610435 0.015581339
000160 2d 13 d2 bc 59 e2 cd 3c c0 cd 4e bc 3d 43 01 3d
       -0.02564391 0.025132345 -0.012622297 0.031558264
000170 78 94 ad bc 62 51 fd 3c 00 63 12 3a c6 24 b9 bc
       -0.02118896 0.030922595 0.000558421 -0.022600543
000180 22 ab c8 3c d8 77 a9 3b 06 19 c5 3c 99 c5 1a 3d
       0.024495665 0.005171757 0.024059784 0.0377861
000190 58 69 9d bc 78 b0 20 3d 5f d6 bc 3b 79 d8 95 3a
       -0.01921527 0.039230794 0.0057628597 0.0011432312
0001a0 84 dc e4 3c ef 83 03 3d 9f f1 dc 3c 58 98 16 3d
       0.027937181 0.032108244 0.026970683 0.03676638
0001b0 3c 62 74 3c 70 db b5 bb 1d 39 18 3c 51 61 83 3c
       0.014915999 -0.0055498406 0.009290961 0.016037615
0001c0 eb e3 6d bd 76 89 94 bd 11 a8 bf bc b5 16 1c bd
       -0.058078688 -0.07252781 -0.02339557 -0.038107593
0001d0 06 c5 ea bc 92 fb 8f 3b 69 c8 a8 3c e7 b3 15 bd
       -0.028658401 0.004394003 0.020603376 -0.03654852
0001e0 f1 52 ab bb a0 cd 1e 3d c5 7c 55 3c 1d d2 a6 3b
       -0.0052283932 0.038770318 0.013030236 0.0050909654
0001f0 49 2c 17 3b 71 eb f6 bc f7 c5 51 3d ad 41 95 3d
       0.0023067167 -0.030141564 0.051214185 0.07287917
000200 38 32 27 3d dd 97 27 bc 8e 34 ed 3c 36 54 2d 3c
       0.040819377 -0.010229078 0.028955724 0.0105791595
000210 d4 b9 0e bd 53 73 2f bd 00 da 76 3b 74 89 c4 3d
       -0.03484519 -0.04283459 0.003766656 0.095965296
000220 a1 5f e4 3d af 05 5a 3d c2 54 74 3d 75 98 70 3d
       0.11151052 0.053228077 0.059651144 0.058739144
000230 b1 47 a9 3d 97 8b a9 3d 76 70 c5 3d ba 7d b3 3d
       0.08265627 0.08278578 0.09640591 0.08764215
000240 03 15 af 3d f3 38 31 3d df 07 bc 3c 98 b3 d5 3c
       0.085489295 0.0432672 0.022952972 0.026086614
000250 16 63 8e bc e4 86 6e bd c4 98 bd bc 10 46 a8 3c
       -0.017381232 -0.05823411 -0.023144133 0.02054122
000260 d8 fb 52 bd 52 c1 1d bd 8f 30 a4 bb c3 c7 b6 bc
       -0.05150971 -0.038514443 -0.0050106714 -0.02231205
000270 dc fe 50 bc 1f 6e 0d bd 30 f2 63 bc 3e 0c 8e 3c
       -0.012756076 -0.034528848 -0.0139127225 0.017339822
000280 cf d9 0d bd 66 6d 2e bc e2 31 d2 bb 72 52 84 bc
       -0.034631547 -0.0106462 -0.006414638 -0.016152594
000290 13 a0 29 3d 2c b6 9c 3b f2 c8 50 bc 01 0b 6e 3c
       0.041412424 0.004782459 -0.012743222 0.014528991
0002a0 7f ad c8 bc 92 6c 20 bd 51 1a fe bb b4 3a c1 3c
       -0.024496792 -0.03916604 -0.007754602 0.023587562
0002b0 3f 21 bd 3c e9 09 94 bc 1a 51 61 3c a3 d6 1a bd
       0.023087142 -0.018071132 0.013752246 -0.03780235
0002c0 c5 ba cd bc 88 ff ac 3c 88 a2 8f bc cc 43 a9 bc
       -0.025113473 0.02111794 -0.017533556 -0.02066221
0002d0 ce 55 1d 3c a4 2e 04 3d d3 c0 12 bd 1f e6 56 3d
       0.009602977 0.032271042 -0.035828423 0.052465554
0002e0 8b 7b b4 bc b6 16 60 3b 11 7d 2a bd 59 e3 39 bc
       -0.022031566 0.0034193224 -0.04162318 -0.011345708
0002f0 be 4f 39 bd 0e 3e 5b 3d e8 21 c1 3c bb 5d c8 bb
       -0.045242064 0.053525977 0.023575738 -0.006114689
000300 0d 83 83 3c 5c 79 a3 3b 0e d5 b5 bc 89 db a2 3a
       0.0160537 0.0049888324 -0.022196319 0.0012425046
000310 3c 7e 5a 3b 26 c1 10 bd 70 44 aa 3d 5d ee 87 3d
       0.0033339402 -0.03534045 0.08313835 0.06637261
000320 43 96 16 bc 3d dc 9a ba 8f 0a 49 3d e4 8b 09 3d
       -0.009191099 -0.0011814904 0.049082335 0.033580676
000330 85 79 8f 3c 67 c8 5c 3a 90 5b 40 bd 80 0a 28 3d
       0.017514 0.0008422196 -0.04696232 0.04102564
000340 c8 e9 09 bb b2 84 c5 bc 73 4e 38 3d 52 a9 19 bd
       -0.0021043885 -0.024111126 0.04499669 -0.037514992
000350 cd 90 81 bd bb 24 ca bc e7 e8 09 bd 01 83 f3 bc
       -0.06326447 -0.024675718 -0.03366938 -0.029725553
000360 57 b4 1a bd d6 8d fe 3c 29 03 05 3d f6 33 48 bc
       -0.03776964 0.031073492 0.032473717 -0.01221942
000370 38 c3 e0 bc 0e 7c fe bc d8 2f 98 3c c0 9d 49 bc
       -0.027436838 -0.031065013 0.018577501 -0.012305677
000380 20 44 b9 ba 4c 58 9e bb 2f 1e 6c bc b6 86 36 3c
       -0.0014134683 -0.004832303 -0.014411493 0.011140516
000390 8f 2c 04 bc 20 99 07 3d 9e 01 1c 3d 36 7e e1 bc
       -0.008067264 0.033105016 0.03808748 -0.027526002
0003a0 2d 70 fc bb 64 83 0a bc e4 68 5d 3d 27 47 72 3d
       -0.007703802 -0.0084541775 0.05405511 0.059149887
0003b0 be 10 0a 3c ef 27 45 3d ee 86 03 bd 26 83 58 3b
       0.008426843 0.048133787 -0.0321111 0.0033037155
0003c0 fd e2 b1 bc 9b 87 4d 3b 17 ec 3f bd 24 d0 95 bc
       -0.021714682 0.0031361345 -0.046856012 -0.018287726
0003d0 07 45 40 bc 66 99 e1 3c 27 2b ae 3c b9 ca f5 bb
       -0.011735207 0.027538966 0.021260811 -0.007500973
0003e0 9e 98 83 3c 18 51 15 bd 2b c0 f8 3c 21 90 01 bc
       0.016063984 -0.03645429 0.03036507 -0.007907898
0003f0 bb 6a 8e 3d 92 12 30 3d fc 24 1e bc d0 5f 1a 3d
       0.06953951 0.04298646 -0.009652372 0.03768903

encoder.6.bias f4 [128]
000000 98 50 f6 3c f7 01 6b 3d e4 37 d6 3c 4a 70 14 3d
       0.030067727 0.05737492 0.026149698 0.0362399
000010 7f 69 c9 3c f7 f8 51 3d b2 0a ef 3b 4e 18 ad bc
       0.024586437 0.051262822 0.007294976 -0.021129753
000020 24 e1 b4 bc 82 b8 a1 bc 9f 4c 2f 3d a3 6a 5b 3d
       -0.022080012 -0.0197413 0.04279768 0.053568494
000030 9c 81 8f bc fc 3e 40 3c 4f d7 12 bc e1 94 fa 3c
       -0.017517857 0.011733767 -0.008962466 0.03058857
000040 90 d4 0e 3c 31 cf 0c 3b 08 eb bd 3c 7e 13 d5 3c
       0.008717671 0.00214858 0.02318336 0.026010271
000050 c9 e8 de bb b9 62 ec 39 dd bd 23 bd a9 e6 9c 3c
       -0.0068026525 0.00045086982 -0.03997599 0.019152956
000060 8b cd 01 bd 5f 46 61 bd f3 22 d6 3c f0 ee 26 bc
       -0.03169016 -0.05499875 0.026139712 -0.010188803
000070 db 57 cc bc e6 fb ee bc 6a 67 cf bc 7f 1b 16 3d
       -0.024944237 -0.029172849 -0.025317866 0.036647316
000080 0a 0a df 3c 6d 75 98 3c 88 d7 17 bd ce 78 af 3c
       0.027226467 0.01861068 -0.03707078 0.021419909
000090 17 d2 ab bb e1 e2 2e bd 0a db 21 bd 68 93 e4 bc
       -0.0052435505 -0.042696837 -0.039515533 -0.02790232
0000a0 b8 49 95 bb 27 7b ee 3c ca 6a 57 3c bd 16 f9 3b
       -0.004555907 0.029111458 0.013148019 0.0076015876
0000b0 5c 1a 36 3d c6 ea 0b 3d 03 25 f1 3a 36 f7 55 3d
       0.044458732 0.034159444 0.0018397871 0.05223771
0000c0 64 66 03 bd 06 71 c8 bc cc 50 ce b9 78 73 3f 3d
       -0.03208007 -0.024467956 -0.0003935158 0.04674098
0000d0 34 b8 18 3d 70 ca c1 3b 43 de 0a 3d e6 72 e7 3a
       0.037285045 0.005914025 0.03390337 0.0017658144
0000e0 00 42 84 bc 28 6c 76 3c da 64 57 3c 34 cf 52 3d
       -0.016144753 0.015040435 0.0131466035 0.051467136
0000f0 43 fe 72 3d 95 5a 01 bd b1 eb 94 3c 05 5d 77 bc
       0.059324514 -0.031580526 0.018178793 -0.015097861
000100 98 41 49 3c 13 a8 1f 3d 90 8f 3b 3c f7 b8 51 3c
       0.012283705 0.038978647 0.011447802 0.012800447
000110 97 0b 4f 3d 90 8e 65 3d 6c 7d 2d bd a5 1f 0f 3c
       0.050548162 0.05604416 -0.04235594 0.008735572
000120 09 72 33 bd 07 00 ce 3c 5c 72 db 3c 52 f0 59 3c
       -0.043809924 0.025146497 0.02678793 0.013301926
000130 62 76 d4 3c 17 c4 15 bc 99 26 22 3d 55 2c 54 3d
       0.025935356 -0.00914099 0.03958759 0.05180009
000140 48 81 d8 bc 1a a7 32 ba 66 2a 5c 3d 73 8f 30 3c
       -0.026428834 -0.0006815061 0.05375137 0.010776388
000150 b8 15 92 3c 48 cd 45 3d be c4 27 bc 3d 99 bf 3c
       0.017832622 0.048291475 -0.010239778 0.0233885
000160 49 c2 5b bc 01 de 5d bc ae 65 2c 3d 4b 20 f2 3b
       -0.01341302 -0.013541699 0.042089157 0.0073891035
000170 e9 33 ca bc dd 66 8f 3c d6 9d 25 bd 17 79 85 3c
       -0.024682956 0.017505104 -0.040433727 0.016293092
000180 e2 4e 88 bc 27 67 4e bc 54 ff 3b bc 63 89 fa 3c
       -0.016639177 -0.012597836 -0.011474449 0.03058309
000190 ff 8c 8e 3b ed 01 67 3d 71 31 1d 3d 73 03 b4 3c
       0.004350304 0.05639832 0.03837723 0.021974301
0001a0 8c 23 6c 3c eb aa 2b bd 6c fd 09 bd 35 33 4c 3d
       0.014412772 -0.041911047 -0.033688948 0.049853522
0001b0 cd 07 cb 3c 04 7d 2f 3d 49 d0 51 3d 6d 9b c0 3c
       0.024783993 0.042843834 0.051224027 0.023511613
0001c0 fe a7 49 3d 58 8f 0f bd 28 a2 4f bc 4e 87 9d bc
       0.049232475 -0.035048813 -0.012672938 -0.019229557
0001d0 5c b7 72 3c 6f 68 80 bb 37 05 07 3d 33 3e 95 bc
       0.014814224 -0.0039186995 0.032963958 -0.018218135
0001e0 35 3b c2 bc 25 81 15 3d 4e 87 c0 3c 94 05 35 3c
       -0.023709873 0.036500115 0.023502018 0.011048693
0001f0 38 6e 54 3c 17 1d 32 3c ad ab 24 3c 08 f6 f3 3c
       0.012965731 0.010871193 0.010050696 0.029780403

decoder.0.weight f4 [128, 64, 3, 3]
000000 7b 7a 96 bc c3 59 f8 3b c1 85 a2 bc 59 17 29 bd
       -0.01836895 0.00757906 -0.01983917 -0.04128203
000010 07 87 9f 3c 0a 21 b5 3c e3 c0 99 bc 5e bd 20 3a
       0.019473566 0.02211048 -0.018768733 0.00061317335
000020 0f 42 fc 3c d0 75 8d 3d bc 0e 93 3c 0f 7d 67 bd
       0.030793218 0.069072366 0.017951362 -0.05651575
000030 40 27 86 3c 29 78 b5 bc 12 3c 77 bd 25 48 d8 bc
       0.016376138 -0.022152023 -0.060360022 -0.026401589
000040 24 ab 27 bd 28 6b 10 bd 90 fd 3a 3d 83 2f c5 bd
       -0.040934697 -0.035258442 0.045651972 -0.09628203
000050 07 1a ae 3c 7a e3 47 3a 26 bb 2b bc c4 3b 4d bd
       0.021252645 0.0007625144 -0.010481631 -0.050105825
000060 75 1d 07 3d 22 94 93 bd 64 4c 94 3b 66 67 8d bc
       0.032987077 -0.072059885 0.004525708 -0.017261218
000070 6f 62 6d 3c 3c 16 1f bd 3b 3a 9c 3b 0c 60 4a 3d
       0.0144888 -0.038839564 0.004767684 0.049408004
000080 e8 03 01 bd cb e8 0b bd 6b 7c 8f 3b d4 eb 14 3c
       -0.031497866 -0.034157556 0.0043788454 0.009089429
000090 e3 16 81 3c 96 a4 61 3d 7c b7 87 bd 55 ed d4 3c
       0.015757984 0.055088602 -0.06626794 0.025992075
0000a0 ed 89 1c bd 64 30 63 3d df 5c 7c bd 02 fc 4a 3c
       -0.038217474 0.05546607 -0.061612006 0.012389185
0000b0 78 29 8a bd 6c 0e 9c bc 41 7e 55 bb 6b 9c 84 3b
       -0.06746191 -0.019049846 -0.0032576474 0.004046967
0000c0 9b 37 58 3d 28 a4 53 3d 38 58 7c 3d 3f 90 b6 bc
       0.052787405 0.051670223 0.06160757 -0.022285579
0000d0 39 f3 59 3d 03 c0 e7 3c 6c 07 64 3d 3d f9 57 3d
       0.05321047 0.0282898 0.05567114 0.052727927
0000e0 08 e0 71 bd 78 83 96 3d 3d f6 c2 bc a7 d6 89 3d
       -0.059051543 0.073492944 -0.023799056 0.06730395
0000f0 ff 8f 07 bd bc 32 27 bd 32 67 4f bd 8b da 75 3d
       -0.03309631 -0.04081987 -0.050635524 0.060022872
000100 b8 75 ae bc db e2 bb bc 21 46 16 bd 51 81 80 bd
       -0.021296367 -0.022935322 -0.036687974 -0.06274665
000110 c3 3d 2a bd 2f ea b8 bd 00 9e 4a bd 8c ac 49 bd
       -0.041562807 -0.09029042 -0.049467087 -0.04923682
000120 d0 89 ab 3c 4b 0c eb bc 46 ac 8c 3c 71 d8 4c bc
       0.020939738 -0.028692385 0.01717199 -0.0125027755
000130 fc 3c fa bc 9b 0c dd 3b f4 ca 39 3c 42 07 aa 3c
       -0.030546658 0.0067458875 0.011339892 0.020755414
000140 eb d7 6e 3d 6a a1 6b 3b 00 43 b1 bb 02 54 06 bd
       0.058311384 0.0035954365 -0.0054095984 -0.03279496
000150 79 0a ba 3b 5b ea a7 3c cd a2 e5 3b c6 71 24 bd
       0.005677518 0.020497492 0.0070079328 -0.040147565
000160 28 c1 0c bd 6a 6a fc bc 85 1c da bb 61 2a ea bc
       -0.034363896 -0.03081246 -0.006656232 -0.028584661
000170 94 34 93 bc 60 e5 13 3b 09 6e 8d 3d 0d e0 8c bd
       -0.017969407 0.0022567138 0.06905753 -0.06878672
000180 6d b9 0d bd b1 10 8a bd 8c 2d 53 bd 3f 32 95 3d
       -0.034600664 -0.06741465 -0.05155711 0.07284974
000190 2a f7 c5 3c 8e e7 75 bd 07 c4 88 3c 54 77 86 bd
       0.024165709 -0.06003528 0.016695036 -0.06565729
0001a0 77 86 4f bd c0 6f ac bd fc 04 67 bd 4a 01 a5 bd
       -0.050665345 -0.08419752 -0.056401238 -0.080568865
0001b0 e8 fb 85 3d 32 33 37 3d 5d 19 56 bc 7b 5d 84 bd
       0.06542188 0.044726558 -0.0130675705 -0.064631425
0001c0 62 62 df bc 4d 96 2a bd fe 31 9b bd c8 e1 95 bd
       -0.027268592 -0.041647244 -0.07577895 -0.07318455
0001d0 27 71 b4 bd 04 b1 ed 3c 5b 67 e0 b8 16 10 a6 bd
       -0.088106446 0.029015072 -0.00010700404 -0.08108537
0001e0 e6 88 62 bd ce 09 91 3a 8d de a8 bd d7 c2 8a bd
       -0.055306338 0.0011065544 -0.08245573 -0.06775444
0001f0 bc 61 9d bd 16 d3 c4 bd 95 15 37 bd 17 67 41 bc
       -0.07684657 -0.09610574 -0.044698317 -0.011804364
000200 a2 d5 09 be 84 0e 8e 3c 03 f8 69 3d 40 43 42 bc
       -0.134604 0.017340906 0.057121288 -0.011856854
000210 ad b1 83 bd 9a 9a 3d 3c 50 06 b0 bd a2 bd e4 bc
       -0.06430373 0.011572504 -0.08594954 -0.027922455
000220 42 bd d5 b9 c6 56 d6 bc fc 6c 32 3d fb ac 89 3d
       -0.00040767534 -0.026164424 0.043560967 0.067224465
000230 d1 31 35 3d 47 e8 28 bd 15 ae be bc 4f c3 4a bb
       0.04423696 -0.041237142 -0.023276368 -0.0030939167
000240 7d cf 40 bc d1 03 64 3d e2 55 f3 3c 05 a9 56 3d
       -0.011768219 0.055667702 0.029704038 0.052407283
000250 b6 96 bf bc 36 b4 1a ba a0 4c 63 3d 43 36 6b 3d
       -0.023387294 -0.00059014873 0.055492997 0.057424795
000260 a8 51 93 3c 7e 18 94 3d 78 e7 23 3d 05 8c 56 bc
       0.017983273 0.07231234 0.040015668 -0.013094907
000270 34 d3 c9 bb 0f af 3c bd ca 6c 2c bd 39 77 af bd
       -0.0061592106 -0.046065386 -0.042095937 -0.08567662
000280 6c db b2 bc f0 a9 8c bd 61 68 81 bd 21 1b 84 3d
       -0.021833144 -0.068683505 -0.06318737 0.06450487
000290 3c ba 63 bd bc fb 8e bd 9f ef 8d bd 59 de 1e bd
       -0.05559753 -0.06981608 -0.0693047 -0.038786266
0002a0 d5 4f b4 bc 99 68 a2 3d a5 7d 57 bd 5f 19 76 3d
       -0.022010723 0.07930107 -0.05261006 0.06008279
0002b0 19 67 5f bc 23 bf c1 bc 31 63 99 bd 90 f3 8d bc
       -0.01363542 -0.023650711 -0.074896224 -0.017328054
0002c0 27 e9 11 bd 91 24 78 bd 0e 3a b5 bd 86 b3 9b bd
       -0.035622742 -0.060581747 -0.08848964 -0.07602601
0002d0 e0 bd 4f 3d ac 12 24 3d 35 65 02 bb 7e e5 1b bd
       0.05071819 0.04005687 -0.001989675 -0.038060658
0002e0 b2 13 d7 3c 56 a0 87 bd c7 56 da bc 81 86 85 bd
       0.026254509 -0.066223785 -0.026652707 -0.06519795
0002f0 89 c4 6d bd 50 c0 7d 3d cb 07 09 3d c1 c2 8c bd
       -0.05804876 0.06195098 0.033454698 -0.06873084
000300 b8 6f 79 3c e9 18 ee bc ef be 30 bc 39 c3 d7 bc
       0.01522439 -0.029064612 -0.01078771 -0.026338207
000310 86 d3 3b bd 71 72 10 bd d6 f8 c6 bd 98 34 1d 3d
       -0.04585602 -0.03526539 -0.097154304 0.038380235
000320 5f 09 91 bd c5 32 4c bb 5e 02 71 bd 72 3d 80 bc
       -0.070818655 -0.003115819 -0.05884015 -0.0156543
000330 1d c0 e2 bd 95 15 de 3c e5 2f 17 bd dd a8 63 bc
       -0.11071799 0.0271099 -0.03691091 -0.013895241
000340 29 df 13 bd bc 44 b9 3c 4b e6 04 3d 65 07 0c 3d
       -0.036101494 0.022615783 0.032446187 0.03418674
000350 a9 fe 22 3d 09 e8 c0 bc 7a cc b7 bc 20 91 5c 3b
       0.039793644 -0.023548143 -0.02243637 0.0033655837
000360 27 29 10 bd d9 5d 7d 3d 62 0b 96 bd 49 b2 13 bb
       -0.035195496 0.06185708 -0.0732639 -0.0022536686
000370 20 0f 25 3c 0a bd 92 bd 90 aa 84 bc f2 70 33 3d
       0.010074407 -0.071649626 -0.016194612 0.043808885
000380 eb a0 e8 bb 02 6d 91 bb fa 18 37 3c 16 ae 78 3d
       -0.007099261 -0.0044380436 0.0111753885 0.060712896
000390 de e2 8b bd 81 28 10 bd ab 21 cb bd 97 46 8d 3c
       -0.06830381 -0.035194878 -0.09918531 0.017245574
0003a0 6a 71 c6 bd 4d f7 4f 3c dc 79 9a 3d 5a 92 11 3c
       -0.09689601 0.012693238 0.07542774 0.008884991
0003b0 7f 10 b4 bd ac 3e 62 bb 58 a8 4a bd c1 78 6b bd
       -0.08792209 -0.0034522219 -0.04947695 -0.057488207
0003c0 8c 38 58 bd 0c 01 a4 bd 95 5a a0 bd d0 a9 1c 3b
       -0.052788302 -0.08008012 -0.07829777 0.0023904927
0003d0 7a 57 ac bc b5 91 5f bc f9 dd 26 bc d1 3b 40 bd
       -0.021037806 -0.013645579 -0.010184758 -0.046932045
0003e0 1a 23 08 bc f6 43 cd 3c 84 e5 07 3d fa d4 05 bc
       -0.00830915 0.02505682 0.033177868 -0.008168453
0003f0 77 ec ac 3d 02 ba 53 3d 94 7e dd ba e8 12 16 bd
       0.084435396 0.051691063 -0.0016898685 -0.036639124

decoder.0.bias f4 [64]
000000 13 d2 7f 3b 05 4f cc 3c 60 b5 d6 bc 81 97 cd bc
       0.0039035126 0.024940023 -0.026209533 -0.025096657
000010 9c c9 fa bb d6 98 64 bc 1b 9d 64 3c 43 a1 37 3d
       -0.0076534282 -0.013952455 0.0139534725 0.044831526
000020 e9 56 73 3c e8 85 24 bd 07 73 08 3d d4 17 09 3d
       0.014852264 -0.040166765 0.033312824 0.03346999
000030 e4 42 a7 3c a2 c0 2e 3d 69 7f c8 ba c9 e2 9e bc
       0.020417638 0.042664178 -0.001529676 -0.019395249
000040 59 22 d3 bc c9 a4 0b 3d 0c eb 04 bb 98 3b 99 bc
       -0.025773214 0.0340927 -0.00202817 -0.018705174
000050 aa 80 46 3d 9d 5a c8 3c 3c 67 63 3b e4 eb 2c 3b
       0.048462547 0.02445727 0.0034698984 0.002638572
000060 7d c5 ba 3c 4d d3 0d 3c 5a cf 39 3d f8 21 08 bd
       0.022799248 0.008656335 0.04536376 -0.03323552
000070 12 24 e2 3c cd bb ad 3b 1c 9b 36 3c ec be ef bc
       0.02760509 0.0053019286 0.011145379 -0.029265843
000080 42 3c 53 bd 80 d8 b2 3c ca 15 24 3d 9c a1 46 3d
       -0.05157114 0.02183175 0.040059842 0.048493966
000090 13 20 88 3d da 17 f6 b9 ba fb 6f bc 33 d7 40 3d
       0.06646743 -0.00046938547 -0.014647419 0.04708023
0000a0 3e fb 62 3d 63 de 41 3b b6 a8 49 3d c0 6c 5c bc
       0.055415384 0.0029582016 0.04923316 -0.013453662
0000b0 93 52 f7 bb 90 7f dc 3c 86 71 24 3d 2a 70 0a 3d
       -0.0075476854 0.026916295 0.040147327 0.033798374
0000c0 55 aa 94 bc c3 c5 30 3d eb 16 57 3d 92 97 06 bc
       -0.018147627 0.04315735 0.05251209 -0.008214848
0000d0 40 39 30 3d 99 b6 b7 bc 54 ec 08 3d 81 79 69 3d
       0.043023348 -0.022425937 0.033428505 0.05700064
0000e0 74 d1 1f 3d dd b4 d5 3c b2 be 98 3c d4 ca c1 bb
       0.03901811 0.026087219 0.018645618 -0.0059140716
0000f0 84 0c 9a bb b8 fd d8 bc e9 a8 0e 3b c2 06 5a bc
       -0.004701199 -0.02648817 0.0021768159 -0.013307275

decoder.2.weight f4 [64, 32, 3, 3]
000000 12 8c 20 3c 33 a9 1f bd 64 f0 c0 bc e7 66 ac 3c
       0.00979902 -0.03897972 -0.023552127 0.021045161
000010 a7 4c 33 bd 74 fc 20 bd f6 8a 41 bc 3f 2a 1a bb
       -0.043774273 -0.039303258 -0.011812916 -0.0023523716
000020 73 f4 e5 3c ec 23 0b bd e8 93 40 bd 34 b5 1f bd
       0.028070664 -0.033969805 -0.047016054 -0.03899117
000030 44 38 22 3c 4b 8b 4e 3d 9a 43 de bc f3 8f 0e bd
       0.00990111 0.05042581 -0.027131844 -0.03480525
000040 fd 7c 9e bc f1 d1 3e bd 62 0d 3d 3d a5 cc 97 3a
       -0.019346708 -0.046586934 0.04615534 0.0011581375
000050 a6 73 9e bc 49 82 11 bd 06 8f 2c 3d f8 df 46 3d
       -0.019342255 -0.03552464 0.042128585 0.048553437
000060 3c fd 01 bd 65 e3 1d bd fa a8 18 3d ad 1a 79 bc
       -0.031735644 -0.03854694 0.037270524 -0.015204114
000070 2f 6d 82 3c b0 fa 67 3d b5 d7 32 bd 83 05 25 bd
       0.015921203 0.05663556 -0.043662746 -0.04028846
000080 66 16 90 3d f9 f7 4c 3d bf ee 24 bd c2 2b 07 3d
       0.07035522 0.050041173 -0.04026675 0.033000715
000090 e8 2b 07 3d 7d e2 11 3d e5 70 3b 3d d0 78 32 bc
       0.033000857 0.035616387 0.04576196 -0.010893062
0000a0 4f 41 4b 3d 9d 89 36 bd d3 aa 57 bd a6 f2 90 bb
       0.04962283 -0.044564832 -0.052653145 -0.004423457
0000b0 9f ff 1a bd e3 71 15 bc 78 ee 3b bd 49 df 4e 3d
       -0.037841436 -0.009121391 -0.04588172 0.05050591
0000c0 84 a5 2e bd c2 ea 43 bd 2e fb 3d bd 99 22 d4 3a
       -0.042638317 -0.047831304 -0.04638212 0.0016184627
0000d0 7d f1 ba bc f5 01 5a 3d b9 55 e8 3c b0 2d 94 3b
       -0.022820229 0.053224523 0.028361188 0.004522048
0000e0 11 0e 88 3d 47 86 d7 ba c7 cb 76 3d 72 6a 7e 3b
       0.06643308 -0.0016443216 0.06025293 0.003882077
0000f0 9b f7 66 ba 07 3a ba 3c db 3f 13 bc 4a 62 8a 3b
       -0.00088107 0.022732748 -0.008987392 0.0042231428
000100 26 23 50 bc 70 1b c3 3c d4 6b 50 3d be 23 08 bd
       -0.012703693 0.023816794 0.050884083 -0.03323721
000110 32 24 6f bc 34 9b f9 3c b5 3b 81 bd 4a 51 64 3b
       -0.014596032 0.030469514 -0.06310216 0.003483849
000120 71 8b 78 3d 42 69 81 3c 99 a8 e2 3b 7d 56 dc 3b
       0.060679857 0.015797261 0.006917071 0.0067241774
000130 96 b9 26 bd af 89 d4 3c cd fa 3b bd d2 3b 33 bd
       -0.040704332 0.025944559 -0.04589348 -0.04375822
000140 58 2f 08 bb 03 27 15 bc 42 fe 72 3d e0 b7 12 bd
       -0.0020780172 -0.009103539 0.05932451 -0.035819888
000150 df 5f a9 3c b0 0e f8 3c 2c 24 5a 3d 68 e5 ef bb
       0.020675598 0.030280441 0.053257152 -0.0073210485
000160 3c 6b da 3c 67 6a 84 3c 70 96 60 3d ab e3 08 bd
       0.026662461 0.016164018 0.05483097 -0.033420246
000170 06 d2 8e bc 5e 16 5a 3d dd d2 ad bb 26 de 0b 3d
       -0.017434131 0.053243987 -0.005304678 0.034147404
000180 01 c8 11 bd f8 3e 39 3d 6a ce 19 bd 2d 69 02 3d
       -0.03559113 0.045226067 -0.037550367 0.031838585
000190 31 b3 1e bd 56 36 83 3c da 89 80 3c 5f 87 42 3d
       -0.03874511 0.01601712 0.015690733 0.04749238
0001a0 5d ce 01 3d f8 34 a7 3b ff 5a 05 bd 88 cc 35 bc
       0.031690944 0.00510275 -0.032557484 -0.011096127
0001b0 14 3d b8 3c 71 6f 80 3d 21 5f 2d 3d 34 37 dd 3c
       0.022490062 0.06271256 0.04232705 0.027003862
0001c0 26 24 47 bd 6a 25 f5 ba 95 99 2d bd 84 69 37 bd
       -0.04861846 -0.0018703167 -0.042382795 -0.044778362
0001d0 b6 a2 43 bc 66 d9 d3 bc 45 76 6a 3d 6d 15 a5 bc
       -0.011940649 -0.0258605 0.057241697 -0.020151818
0001e0 ed 01 44 bd 6d a6 26 3c 9f 25 37 bc 61 65 21 bd
       -0.0478534 0.010171515 -0.011178403 -0.039403323
0001f0 22 73 37 3d 72 99 54 3d 33 02 01 bd d0 2b 98 bb
       0.044787534 0.05190415 -0.031496238 -0.0046438947
000200 b5 6b a0 3c 73 8f 2f 3d d6 11 4d 3d b7 e0 68 bd
       0.019582609 0.042861413 0.050065838 -0.05685493
000210 24 fe 81 bd 59 10 51 bd ba bf 55 bd d2 99 db bc
       -0.063473016 -0.05104098 -0.052184798 -0.026806746
000220 bb 4e 24 bd fd 89 36 3d f6 62 1a bc 07 31 10 bd
       -0.040114146 0.04456519 -0.009423008 -0.035203006
000230 e8 2b 8c 3b 65 08 d3 bc 11 9e d4 3c 37 43 a3 3c
       0.004277695 -0.025760839 0.025954278 0.019929511
000240 62 c3 b1 b7 ae bf 18 3d 87 8d 22 3d 30 66 65 bd
       -2.1191026e-05 0.037292175 0.039685752 -0.056005657
000250 5c a0 29 3d e4 de 71 bd de fd 22 3d 9e 5a dc 3a
       0.041412696 -0.059050456 0.039792888 0.0016811674
000260 39 6a c8 3b e4 6c c7 bc b8 89 05 bd 43 a1 4b 3d
       0.0061161784 -0.024343915 -0.032602042 0.049714338
000270 26 8a 43 3d ae 8e fe bc f8 0f c6 3c 9b ff e9 bc
       0.04773917 -0.031073894 0.024177536 -0.028564265
000280 c3 8b eb 3c 3c 50 f4 3c db ea 02 bd 81 98 9c 3c
       0.028753167 0.029823415 -0.031962257 0.019115688
000290 20 89 24 3c 4a 03 35 3b e7 3b 4d 3d ae 79 96 bb
       0.010042459 0.0027620369 0.050105955 -0.004592142
0002a0 68 ef 49 bd 5e 23 07 bd e5 01 24 bd a9 e6 66 3d
       -0.04930058 -0.032992713 -0.04004087 0.05637232
0002b0 a9 2c ce bc 55 69 be 3c 12 ca ba 3c 65 8b fc 3b
       -0.02516778 0.023243586 0.022801433 0.007707047
0002c0 c2 12 1a bd d6 d8 da bc bb d4 1d 3d 2a 18 ff bc
       -0.037615545 -0.026714724 0.038532954 -0.031139452
0002d0 c6 fb f8 bc c8 ab c6 3c 42 68 ef 3b 36 2f 1d bd
       -0.030393492 0.024251834 0.0073061297 -0.038375102
0002e0 f6 28 af 3c 0b c1 57 3d d5 b8 50 3d fe c2 81 3d
       0.021381836 0.052674334 0.05095752 0.0633602
0002f0 d0 d7 d4 3c 94 44 23 bd d7 22 0a bd 4f 48 76 3d
       0.025981814 -0.039860323 -0.033724632 0.060127553
000300 07 fe 5a 3c 1b 3f 8a 3d dd d1 8a 3d b2 6b b9 bc
       0.013366229 0.06750318 0.067783095 -0.022634361
000310 ee fe e7 bc 4b 72 9d bc c7 c6 2a 3c ee 91 77 3d
       -0.028319802 -0.019219538 0.010423369 0.060441904
000320 51 2e fe bc 54 a1 32 bd b4 b1 7a 3d 4c 25 54 bd
       -0.031027945 -0.043610886 0.061204627 -0.05179338
000330 a6 30 2d bd bf da 6d 3c fe a9 88 3c c8 88 17 bd
       -0.042282723 0.014517485 0.016682621 -0.03699568
000340 97 8e 86 3b 2b da 00 bc 89 27 21 3d c4 c2 16 bc
       0.0041063535 -0.007864515 0.039344344 -0.009201709
000350 79 1d 89 bb 4c 6b a3 3c 35 c3 14 3d 99 b5 18 3d
       -0.0041844216 0.019948624 0.036318976 0.03728256
000360 5b 36 04 3d 66 b2 24 3d d1 3b 37 3c 7f 6d 1c bb
       0.0322784 0.040209197 0.011183695 -0.0023868976
000370 c2 53 82 3d 54 3e 3f 3d 87 de ad bc 31 7b 04 3b
       0.06363632 0.0466903 -0.021224273 0.002021503
000380 74 f7 95 3c 2c 83 fa 3c 0a 69 39 3d f1 de f2 3c
       0.018306471 0.030580126 0.04526619 0.029647322
000390 00 cf c5 3a cf 2b 00 3d 18 7e e9 3b d1 af db 3a
       0.0015091598 0.03129178 0.0071256272 0.0016760771
0003a0 45 dd 67 3c da 0a 50 3b 9b 2b e8 3c e7 bb 25 3b
       0.014151876 0.003174475 0.028341105 0.0025289
0003b0 42 80 2e 3d 46 95 89 3d f6 ae f7 bc 7b 3a 81 3d
       0.042602785 0.06717925 -0.030234795 0.063099824
0003c0 94 88 04 3c 3d 76 e2 3c 5b c5 91 bc e5 2d b9 bc
       0.008089203 0.027644271 -0.017794302 -0.022604892
0003d0 a9 4e 88 bc a8 87 9e 3c 1d 79 de bc 5c d2 80 3d
       -0.01663907 0.019351795 -0.02715736 0.06290123
0003e0 63 9c 83 3d cd b5 8b bc a9 12 a8 bc 45 1c 93 3c
       0.06426313 -0.017054463 -0.02051671 0.017957816
0003f0 84 48 ec bc d3 15 0a bd 5b 46 ca bc 67 09 69 3d
       -0.028843172 -0.03371222 -0.024691751 0.056893732

decoder.2.bias f4 [32]
000000 a4 86 24 bd 71 6d 10 3d f2 64 82 3d bc a7 8d bc
       -0.040167466 0.03526062 0.0636691 -0.017291896
000010 46 61 fc bc e5 a0 d4 3c 4d 13 72 3d 79 33 35 3d
       -0.030808102 0.025955627 0.059100438 0.04423854
000020 cb 21 b6 3c ba 03 25 3d 29 68 b2 bb 27 12 5a bd
       0.02223291 0.040286757 -0.0054445458 -0.053239968
000030 5a c1 95 3c fe 72 88 3d a4 54 99 3c 8c 2d 8b 3a
       0.018280674 0.06662558 0.018717118 0.0010618432
000040 1a 74 ed 3c ac 6f 0c 3d d7 2a e7 3c b5 04 17 3d
       0.028986026 0.034286186 0.02821867 0.036869723
000050 43 a8 6c bc ae 1b a4 3d 31 52 69 3c 7d 89 f5 bc
       -0.014444414 0.08013092 0.014240787 -0.029972786
000060 5d 56 85 3d d6 b4 44 bd 59 4d 30 bc bd 5e 16 3d
       0.06510613 -0.04802402 -0.010760629 0.036711443
000070 41 ca 21 3c cd f2 e7 3c 18 d6 08 3d c8 8d 99 3d
       0.009874881 0.028314019 0.0334073 0.07497746
